test_MNIST_CIFAR10/model.pth (torch, 89871 bytes, 8 tensors)

conv1.weight f4 [10, 1, 5, 5]
0	0xbd626a96	-0.05527743
1	0x3ea16bb6	0.3152749
2	0x3e266f68	0.16253436
3	0x3e845ab5	0.25850454
4	0x3e7702b9	0.24122132
5	0x3e185ffd	0.14880367
6	0x3e87a834	0.26495516
7	0x3e6e7018	0.23284948
8	0x3e71a077	0.23596369
9	0x3d593af5	0.05303474
10	0xbd9a9547	-0.07548004
11	0xbd276596	-0.040868364
12	0x3d220da7	0.0395638
13	0xbccbc0b5	-0.024872163
14	0x3dc828c7	0.09773403
15	0xbd9dfe2e	-0.077144966
16	0xbe7053f7	-0.2346953
17	0xbea5391b	-0.3227013
18	0xbe8187f0	-0.25299025
19	0xbe8b3bcd	-0.27194062
20	0xbde9ff8a	-0.11425693
21	0xbe165db6	-0.14684185
22	0xbe241382	-0.16023067
23	0xbe0c1dad	-0.13683195
24	0xbe8c560a	-0.27409393
25	0x3e38c042	0.1804209
26	0x3e96a9f4	0.2942654
27	0x3ec4f354	0.38466895
28	0x3e71dc80	0.2361927
29	0xbe2ab0e1	-0.16669036
30	0xbe76600d	-0.24060078
31	0xbd3c6113	-0.045991015
32	0x3eadad42	0.33921248
33	0x3e99329e	0.2992143
34	0x3eab9543	0.33512315
35	0xbeadd5e1	-0.3395224
36	0xbc4efb80	-0.012633204
37	0xbd7441b9	-0.05963299
38	0x3e956d20	0.29184818
39	0x3e8aae2d	0.2708601
40	0xbecd1937	-0.400583
41	0xbdebe660	-0.1151855
42	0xbe77d5d5	-0.24202664
43	0xbdd87c11	-0.10570539
44	0x3d96e68d	0.07368193
45	0xbe673217	-0.22577702
46	0xbeb709b2	-0.35749584
47	0xbe881b89	-0.26583508
48	0xbe111ac0	-0.1417036
49	0xbda07d04	-0.07836345
50	0x3eb0dd1e	0.345437
51	0x3ec84876	0.39117783
52	0x3e0e2bbf	0.13883875
53	0xbd9105d9	-0.070811935
54	0x3e4e9566	0.20174178
55	0x3d0edafb	0.034876805
56	0xbd403db0	-0.04693383
57	0x3e622481	0.22084238
58	0x3e38ff67	0.18066178
59	0x3e764724	0.24050575
60	0xbe255c1e	-0.16148421
61	0x3b99d7d6	0.004694919
62	0x3de8f95a	0.11375685
63	0x3e095356	0.13410696
64	0xbe0ff580	-0.14058495
65	0xbe1ba458	-0.15199411
66	0x3e3a44da	0.18190327
67	0x3d8769b9	0.06611962
68	0x3e12535e	0.14289615
69	0xbdd1f324	-0.102514535
70	0x3d0fe1e2	0.035127528
71	0x3ddae52f	0.106882446
72	0x3df651ec	0.12027344
73	0x3c815585	0.01578785
74	0xbeb7faf8	-0.3593366
75	0x3d9c7cb2	0.07640971
76	0xbe69faf1	-0.22849633
77	0xbe703fe3	-0.23461871
78	0xbdb580e0	-0.088624716
79	0xbdd759aa	-0.10515149
80	0x3e583cae	0.21116897
81	0xbdc172e4	-0.09445742
82	0xbe8e561d	-0.27800074
83	0x3c8dcb13	0.017308747
84	0xbdf48bef	-0.11940753
85	0x3e8f3f16	0.27977818
86	0x3e634f10	0.22198129
87	0xbe03b52f	-0.12862085
88	0x3a5ccd2d	0.00084229076
89	0x3d5aa652	0.05338127
90	0xbcb5e5ee	-0.022204366
91	0x3d9824aa	0.07428868
92	0x3e2e595a	0.17026272
93	0x3dc4d0bf	0.09610128
94	0xbc51e5bc	-0.012811121
95	0x3d8e78a0	0.06956601
96	0x3ebf0f85	0.37316528
97	0x3d8cbf19	0.068723865
98	0x3e3a52d6	0.18195662
99	0x3e3e52ee	0.18586323
100	0xbe448fa7	-0.19195424
101	0xbe65ef99	-0.2245468
102	0x3e10ee7b	0.14153473
103	0x3d154a87	0.036448028
104	0x3e3c0c74	0.18364125
105	0x3dc7b6fa	0.09751697
106	0x3e4952a1	0.19660427
107	0x3ead5a0f	0.33857772
108	0x3ea7fdcd	0.32810822
109	0xbdda0742	-0.106459156
110	0x3e08aa5f	0.13346241
111	0x3e3dc59b	0.18532412
112	0x3dc2bb35	0.09508363
113	0x3df0ad39	0.117517896
114	0xbe2b867e	-0.16750523
115	0xbe19c233	-0.15015487
116	0xbe810105	-0.2519609
117	0xbe2c67d3	-0.16836481
118	0x3e2c699a	0.16837159
119	0xbd9b97d7	-0.075973205
120	0xbddd8f6c	-0.10818371
121	0xbeafd62e	-0.34343094
122	0xbea99cac	-0.33127344
123	0xbd4a92bb	-0.04945634
124	0x3e5127c7	0.2042533
125	0x3e7e3bab	0.24827449
126	0x3cfc28bf	0.030781148
127	0x3e0f1ea1	0.13976528
128	0x3e54ab40	0.20768452
129	0x3d9ea358	0.07745999
130	0x3e0771e4	0.1322704
131	0x3e8a1588	0.26969552
132	0x3e6d16cb	0.23153226
133	0x3d7b753a	0.061391093
134	0xbe54aa1b	-0.20768015
135	0xbe628fda	-0.22125188
136	0xbdd8f513	-0.10593619
137	0x3cbae6e8	0.022815183
138	0xbdbf74e2	-0.093484655
139	0x3d95183b	0.07280012
140	0x3c2187d9	0.009859049
141	0xbdd9dcec	-0.10637841
142	0x3e0f1bed	0.13975497
143	0x3e3016cd	0.17196198
144	0x3e96c642	0.29448134
145	0x3df1fc33	0.11815681
146	0xbdc3580e	-0.095382795
147	0x3e684c94	0.22685462
148	0x3d8a141a	0.06742115
149	0x3dab9aae	0.08379112
150	0xbeadd674	-0.33952677
151	0xbea7d320	-0.32778263
152	0xbe691f18	-0.22765768
153	0xbbe45533	-0.0069681644
154	0x3e8dabb5	0.27670065
155	0xbeb0cf64	-0.34533226
156	0xbe907df5	-0.28221098
157	0x3bcfc274	0.0063403193
158	0x3e34e609	0.17665876
159	0x3ec0367f	0.37541577
160	0xbec617a7	-0.3868992
161	0xbd865c35	-0.06560556
162	0xbca18c5e	-0.019720253
163	0x3e9b261e	0.3030252
164	0x3e35359e	0.17696235
165	0xbeb757d9	-0.3580921
166	0xbdc85054	-0.097809464
167	0x3e881c9a	0.2658432
168	0x3eb27931	0.34858087
169	0x3e7655e0	0.24056196
170	0x3d420f0d	0.047377635
171	0x3e493306	0.1964837
172	0x3e89735e	0.2684583
173	0x3e2bd9c6	0.16782293
174	0xbcf84cbf	-0.030310033
175	0x3dbad5ee	0.09122835
176	0xbd96c48c	-0.07361707
177	0xbd05d3b0	-0.032672584
178	0xbe937907	-0.28803274
179	0xbe480546	-0.19533262
180	0xbdd6bc5c	-0.104851454
181	0x3da67d0f	0.08129322
182	0xbeaac7c9	-0.3335555
183	0xbed1f5ca	-0.41007835
184	0xbe84d0ea	-0.2594064
185	0xbcb78d39	-0.022406207
186	0x3c82a3c3	0.015947228
187	0xbe03e525	-0.1288038
188	0xbe2a60ea	-0.16638532
189	0xbbeb224f	-0.0071757208
190	0x3e844023	0.25830182
191	0xbd959e43	-0.07305577
192	0x3e93cccc	0.28867185
193	0x3ed11bc4	0.40841496
194	0x3ee5bc96	0.44870442
195	0xbd4f6097	-0.050629225
196	0x3e5330e5	0.2062412
197	0x3e029b7c	0.12754625
198	0x3ed7e20f	0.42164657
199	0x3cc5dea0	0.024154007
200	0x3e8fbec5	0.28075233
201	0x3e0c78ad	0.13717909
202	0xbdb17ca3	-0.08666351
203	0xbe61b65d	-0.22042222
204	0xbe58685e	-0.21133563
205	0x3e9d1045	0.30676475
206	0x3e49d443	0.19709878
207	0xbd3da6ce	-0.046301655
208	0xbef1ec04	-0.47250378
209	0xbe27ea08	-0.1639787
210	0x3ea9e713	0.33184108
211	0x3eb9da14	0.36299193
212	0x3d88e351	0.06683982
213	0xbec659e5	-0.3874046
214	0xbea736b5	-0.32658926
215	0x3e999098	0.2999313
216	0x3d9b8561	0.075937994
217	0x3e890812	0.2676397
218	0xbe8a7d6e	-0.2704882
219	0xbe9b808b	-0.30371508
220	0x3e479f0e	0.19494268
221	0x3d8f9912	0.07011618
222	0x3ccf29b3	0.025288438
223	0x3d1ad256	0.03779825
224	0x3c766bec	0.015040379
225	0x3e041979	0.12900342
226	0xbd142e49	-0.036176953
227	0xbd8b3583	-0.06797316
228	0x3ea69ec8	0.32543015
229	0x3d700340	0.05859685
230	0xbe31b461	-0.17353965
231	0x3d2ad834	0.041710094
232	0xbe183048	-0.14862168
233	0x3e1ac512	0.15114239
234	0x3e67f8fc	0.22653574
235	0xbe8bfeba	-0.27342778
236	0xbea0badc	-0.31392562
237	0xbe3d94ea	-0.18513837
238	0xbda20b70	-0.07912338
239	0xbc8a9012	-0.016914401
240	0xbe1c3a6e	-0.15256664
241	0xbe394e2a	-0.18096223
242	0xbec4bab0	-0.3842368
243	0xbea69b97	-0.3254058
244	0xbe91ea33	-0.28498992
245	0x3e835a78	0.2565496
246	0x3e48a4ea	0.1959416
247	0xbd567fdc	-0.05236803
248	0xbd8b1a43	-0.067921184
249	0xbdacf609	-0.08445365

conv1.bias f4 [10]
0	0xbce52036	-0.027969461
1	0xbd3da983	-0.046304237
2	0x3e395aa1	0.18100978
3	0x3e09761f	0.13423966
4	0x3df469b8	0.11934227
5	0x3d0901c6	0.033448957
6	0x3dfd1f81	0.123595245
7	0x3ddf0ff9	0.108917184
8	0xbe05663b	-0.13027279
9	0x3df7a528	0.12092048

conv2.weight f4 [20, 10, 5, 5]
0	0xbbafa6f6	-0.0053604795
1	0xbdac8e84	-0.0842562
2	0x3be27e16	0.0069120033
3	0xbd102c6a	-0.035198607
4	0x3d2f31ab	0.042771976
5	0xbd646b58	-0.055766433
6	0xbd2a3a7c	-0.04155968
7	0xbd329f32	-0.04360885
8	0xbcf1820f	-0.029480962
9	0x3c5d979a	0.013524914
10	0xbd35ef72	-0.044417806
11	0xbdc8bb40	-0.0980134
12	0xbde63109	-0.112398215
13	0xbcbcc17d	-0.023041481
14	0xbd3875ce	-0.045034222
15	0xbd084a14	-0.03327377
16	0xbd946ebf	-0.07247686
17	0xbd43c918	-0.0477992
18	0xbd258e01	-0.04041863
19	0xbd54db17	-0.051966753
20	0xbddd5d07	-0.10808759
21	0xbdcf892d	-0.10133586
22	0xbddc1cbb	-0.107476674
23	0x3ad2901f	0.001606468
24	0xbd3a32be	-0.045458548
25	0x3d4bc8b7	0.049751963
26	0xbc995092	-0.018715177
27	0xbd9b80a3	-0.07592895
28	0x3ca14aa1	0.019688906
29	0x3d5320da	0.051545
30	0x3d112b33	0.03544159
31	0xbde4acda	-0.11165781
32	0xbe114079	-0.1418475
33	0xbddd07bb	-0.1079249
34	0xbe0015da	-0.12508336
35	0xbd8a481d	-0.06752036
36	0xbdd80c3f	-0.10549211
37	0xbe047d77	-0.12938486
38	0xbdae90c6	-0.08523707
39	0xbdb79dc6	-0.0896564
40	0xbdc3043d	-0.09522293
41	0xbe19ce63	-0.15020137
42	0xbe0e29b2	-0.13883093
43	0xbd3ada43	-0.045618307
44	0xbdff1d31	-0.1245674
45	0xbdd8f4e1	-0.10593582
46	0xbe2f4a26	-0.17118129
47	0xbdc60000	-0.09667969
48	0xbca94b82	-0.020665888
49	0xbcf60ea4	-0.030036278
50	0x3e137dc6	0.14403448
51	0xbd03e98c	-0.03220515
52	0xbce909c7	-0.028447045
53	0x3d8962b4	0.06708279
54	0x3dbfb300	0.093603134
55	0x3dba3c7a	0.09093566
56	0xbd6a5c9b	-0.05721722
57	0xbd1dc1e6	-0.038514994
58	0xbb9ad289	-0.004724805
59	0xbc1b137b	-0.009465094
60	0x3ce1b492	0.027551923
61	0xbdcf255f	-0.1011455
62	0xbb8b2338	-0.0042461418
63	0x3da59b9b	0.0808632
64	0xbcf60233	-0.030030346
65	0xbd22653f	-0.039647337
66	0x3bf023d1	0.0073284884
67	0x3b5dd216	0.0033847145
68	0x3d5bf785	0.05370285
69	0xbdf4d321	-0.11954332
70	0xbd3d97af	-0.046287235
71	0xbdcc4303	-0.09973719
72	0xbdd79217	-0.10525911
73	0xbd84ea0e	-0.06489955
74	0xbcd3098f	-0.025761394
75	0xbc08498c	-0.008318316
76	0xbda387f6	-0.07984917
77	0xbdad036e	-0.0844792
78	0xbda6a3c5	-0.08136705
79	0x3d121ca7	0.035671856
80	0xbd4361f7	-0.04770085
81	0xbd8b103b	-0.06790205
82	0xbcd5893f	-0.02606642
83	0xbcd4afe8	-0.025962785
84	0xbd792ecf	-0.060835656
85	0xbda6676a	-0.081251934
86	0xbafeaf74	-0.0019430951
87	0xbc0d3484	-0.008618478
88	0xbd4623a8	-0.04837385
89	0xbde9bb0b	-0.11412629
90	0xbccc0b6d	-0.024907792
91	0xbc1a9f72	-0.009437429
92	0x3d0086a3	0.0313784
93	0xbcc9d17f	-0.024636028
94	0x3c0c3489	0.008557447
95	0xbc149135	-0.009067823
96	0xbd78beef	-0.060728963
97	0xbdf894a2	-0.121377245
98	0xbc991489	-0.01868655
99	0x3c162cba	0.009165937
100	0x3d2fe179	0.042939637
101	0xbd76fba7	-0.060298588
102	0xbdd520bc	-0.10406634
103	0xbd8a744e	-0.067604646
104	0xbc874735	-0.016513446
105	0xbc25306b	-0.0100823445
106	0xbe204a32	-0.15653303
107	0xbdcf7d62	-0.10131337
108	0xbda2f29f	-0.079564326
109	0xbd32998d	-0.04360347
110	0x3c52da0c	0.012869369
111	0xbdc9d1d5	-0.098544754
112	0xbd666db5	-0.05625697
113	0x3d5f0a54	0.05445321
114	0x3cead6d4	0.028666891
115	0xbd5bac59	-0.05363116
116	0xbdf4ba63	-0.11949613
117	0xbd29b1b1	-0.041429225
118	0x3db5d21c	0.08877966
119	0xbded173d	-0.11576698
120	0xbe1ed8a5	-0.15512331
121	0xbdab2cf3	-0.08358183
122	0xbd131307	-0.035906818
123	0x3d19ff19	0.037596796
124	0xbd83d646	-0.06437354
125	0x3cbc99d7	0.023022575
126	0xbcbc78a8	-0.023006752
127	0x3d03ce75	0.032179315
128	0x3c356f64	0.011073921
129	0xbc9381b1	-0.018006178
130	0x3d654d43	0.055981886
131	0xbd7f4cd9	-0.062329147
132	0xbcee628d	-0.029099727
133	0xbd19f0e8	-0.03758326
134	0x3d3acfdc	0.045608386
135	0xbcff34d5	-0.031153122
136	0xbe0bfd7a	-0.13670912
137	0xbb665543	-0.0035146035
138	0xbcb71662	-0.02234954
139	0xbdb3d74a	-0.087812975
140	0xbd882858	-0.0664832
141	0xbe1d40a3	-0.15356688
142	0xbda875cb	-0.08225592
143	0x3ba2e3f5	0.0049710223
144	0xbb1b161a	-0.0023664297
145	0xbd0b6f92	-0.03404195
146	0xbdc5e1d5	-0.09662215
147	0x3c09dca7	0.008414424
148	0x3d8a0067	0.06738358
149	0xbdd68f11	-0.104765065
150	0x3da145c4	0.07874635
151	0x3cf164bf	0.029466985
152	0xbce645bd	-0.028109426
153	0x3cb736c1	0.022364976
154	0xbc50f368	-0.012753345
155	0x3d9838fc	0.07432744
156	0xbd0c765f	-0.034292575
157	0x3df01af6	0.117238924
158	0x3e0213b1	0.12702824
159	0x3e5a81e9	0.2133862
160	0x3db3a0cf	0.08770906
161	0x3dc03c39	0.093864866
162	0x3d75aa89	0.059977088
163	0x3dc22eb9	0.09481568
164	0x3dcfda69	0.1014908
165	0x3cb099a9	0.021557646
166	0x3c158f23	0.009128365
167	0x3d91783c	0.07103011
168	0x3dc25d5e	0.09490465
169	0x3c120ce2	0.008914204
170	0x3d199784	0.037498012
171	0xbc36028d	-0.011109007
172	0x3e104e39	0.1409234
173	0x3dba5430	0.09098089
174	0xbe0f4a0a	-0.13993087
175	0xbcafad52	-0.02144495
176	0xbe009d2f	-0.12559961
177	0x3cb1f806	0.021724712
178	0xbde3f032	-0.11129798
179	0xbc0c44bd	-0.00856131
180	0xbd0acc56	-0.033886276
181	0x3c45cb69	0.012072423
182	0xbcee4c5e	-0.02908915
183	0x3dc7d1b0	0.097567916
184	0x3b4bc6cc	0.0031093834
185	0xbdcc3cdc	-0.099725455
186	0xbc00cbc9	-0.007861086
187	0x3b958041	0.004562408
188	0x3d6cd07c	0.057816014
189	0xbd553879	-0.05205581
190	0x3b9eada7	0.0048424783
191	0xbcd7f99b	-0.026364138
192	0xbdc9bcf7	-0.09850495
193	0xbde08134	-0.109621435
194	0x3d3bc2bd	0.045840014
195	0xbce6c486	-0.028169882
196	0xbcb09936	-0.021557432
197	0xbe2cfec4	-0.1689406
198	0xbc84bc1f	-0.016202984
199	0x3d923d20	0.07140565
200	0x3df5f296	0.1200916
201	0x3e1cfb12	0.1533015
202	0xbd32cc15	-0.04365166
203	0xbd8a8d6a	-0.06765254
204	0xbc4ca50c	-0.012490522
205	0x3da8b27d	0.08237169
206	0x3db9dda9	0.090754814
207	0xbd564528	-0.052312046
208	0x3d437662	0.04772032
209	0x3dbfb6e1	0.09361053
210	0x3e37bd9c	0.17943424
211	0x3dd870ba	0.10568376
212	0xbdd69548	-0.10477692
213	0x3d942a98	0.072346866
214	0x3dbec9d0	0.093158364
215	0x3d2d93fc	0.042377457
216	0x3d16224c	0.0366538
217	0xbcfc5765	-0.030803392
218	0x3dcba6a0	0.099438906
219	0x3e11877c	0.1421184
220	0x3e0a2251	0.13489653
221	0x3bdee755	0.0068024793
222	0x3d1a9170	0.037736356
223	0x3e09da3d	0.13462158
224	0x3dff87df	0.12477087
225	0x3d53085e	0.05152165
226	0x3d3688a0	0.04456389
227	0xbc6ffe13	-0.014647978
228	0x3d6c64b6	0.057713233
229	0xbcfd10cd	-0.0308918
230	0x3d03f573	0.0322165
231	0x3ca4665e	0.020068344
232	0x3bf43fc4	0.0074538905
233	0xbd572d58	-0.052533478
234	0xbd9e9d6b	-0.07744869
235	0x3c853356	0.01625983
236	0xbd94ef69	-0.07272226
237	0xbd9025ac	-0.07038435
238	0xbdc136fc	-0.094343156
239	0xbd659307	-0.05604842
240	0xbce66307	-0.028123392
241	0xbd496ffb	-0.04917906
242	0xbd51ebef	-0.051250394
243	0xbde92d14	-0.11385551
244	0x3d327416	0.04356774
245	0xbd2fd8a6	-0.04293122
246	0xbd8c46fd	-0.068494774
247	0x3c1b99ac	0.009497087
248	0xbca6c361	-0.020356836
249	0x3d8bdfa5	0.06829766
250	0xbd027cb8	-0.031857222
251	0xbdded863	-0.10881116
252	0xbda67cc4	-0.08129266
253	0xbdb91710	-0.09037602
254	0xbd291f35	-0.041289527
255	0xbdec5065	-0.115387715

conv2.bias f4 [20]
0	0x3d592055	0.05300935
1	0xbd1e4c43	-0.038646948
2	0xbc10b2dd	-0.008831707
3	0xbcb8be0f	-0.022551564
4	0xbd5bab87	-0.053630378
5	0xbcc21f90	-0.02369669
6	0x3cbbdb15	0.022931615
7	0xbd07eb59	-0.03318343
8	0xbd860565	-0.06543998
9	0x3cb7eea9	0.02245267
10	0xbd7212f7	-0.059100118
11	0xbd7f9f54	-0.062407807
12	0xbcf4db5d	-0.029889757
13	0xbb7a1309	-0.0038158318
14	0xbd839c87	-0.064263396
15	0xbb8575e3	-0.004072891
16	0xbd299502	-0.04140187
17	0xbcc32278	-0.023820147
18	0x3bc8c3c4	0.0061268527
19	0x3c40d839	0.0117703015

fc1.weight f4 [50, 320]
0	0x3cc06ec6	0.02349032
1	0xbc9b3221	-0.018944802
2	0x3dc85a28	0.09782821
3	0x3d887d34	0.066645056
4	0x3b98c0ec	0.00466167
5	0x3b509eb5	0.0031832878
6	0xbb00ff4e	-0.0019683423
7	0x3b95f1bb	0.0045759357
8	0xbc640d41	-0.013919176
9	0xbd5a0b8f	-0.05323368
10	0xbd49f00e	-0.0493012
11	0xbd94ba83	-0.07262137
12	0x3d1bfd18	0.038083166
13	0x3d6e7009	0.058212314
14	0x3c524538	0.012833886
15	0x3d985a44	0.07439092
16	0xbcb1a757	-0.02168624
17	0xbd684196	-0.056703173
18	0xbc577823	-0.013151201
19	0xbbcae7da	-0.0061921896
20	0x3d0a122c	0.033708736
21	0xbb3c2a3c	-0.0028711697
22	0x3d9659d6	0.073413536
23	0x3d581756	0.05275663
24	0x3d1087f1	0.035285894
25	0x3ca5d1bf	0.020241616
26	0x3d6b401a	0.05743418
27	0x3d91b796	0.07115094
28	0xbdc6df56	-0.09710567
29	0xbc041023	-0.008060488
30	0xbcc32d9c	-0.02382546
31	0x3be3fda7	0.006957728
32	0x3bf517ea	0.0074796574
33	0xbd18d786	-0.037314914
34	0xbceef6ee	-0.02917048
35	0x3d0f7b3f	0.035029646
36	0x3bcc3939	0.0062324074
37	0xb9a94f1e	-0.0003229314
38	0xbd55864b	-0.052130025
39	0xbcef753c	-0.029230706
40	0xbd5773d4	-0.052600697
41	0xbd2cc7f6	-0.042182885
42	0x3d43bc38	0.04778692
43	0xbcc7a4c7	-0.024370564
44	0xbc84c08a	-0.016205091
45	0x3cd4e970	0.025990218
46	0x3d8122d3	0.0630547
47	0x3d6c0478	0.05762145
48	0xbd154cde	-0.03645026
49	0xbb3d1a21	-0.0028854685
50	0xbd0f19c9	-0.0349367
51	0xbbb955ab	-0.0056559644
52	0xbc349f92	-0.011024373
53	0xbc7cc7e0	-0.015428513
54	0xbd02b940	-0.03191495
55	0xbd1dfe9c	-0.038572893
56	0xbd7a8539	-0.061162207
57	0xbb9157b6	-0.004435505
58	0xbc6a8e5d	-0.014316169
59	0xbd7b5d5f	-0.061368342
60	0x3d9df58b	0.07712849
61	0x3e1891fe	0.14899442
62	0x3d50259e	0.050817125
63	0xbb9cbb6b	-0.004783084
64	0xbd79eb80	-0.061015606
65	0xbd27a593	-0.04092939
66	0xbc9ea1a9	-0.019364195
67	0xbc8bd0df	-0.017067371
68	0xbcd02434	-0.025407888
69	0x3bed47c9	0.0072412235
70	0x3d33d920	0.04390824
71	0xbc1a7b7e	-0.009428857
72	0x3b0af140	0.0021200925
73	0x3d209cd6	0.03921207
74	0xbc9fe1c4	-0.019516833
75	0xbccab3ea	-0.024743993
76	0x3c641de7	0.013923145
77	0x3dc97251	0.09836257
78	0x3c3c92f0	0.011509642
79	0xbdb23973	-0.08702364
80	0x3a958e11	0.0011410137
81	0x3cc03d04	0.023466595
82	0xbc9b30e8	-0.018944219
83	0x3d1e8946	0.038705133
84	0x3cf83c01	0.03030205
85	0xbce26e98	-0.027640626
86	0xbc900cba	-0.017584193
87	0x3c664ea7	0.014056838
88	0x3d81be20	0.063350916
89	0x3d81ef3e	0.0634446
90	0x3d7540c4	0.05987622
91	0xbc38170b	-0.011235963
92	0x3c91e4e4	0.017809339
93	0x3d0663c7	0.03281
94	0xbd699e19	-0.05703554
95	0xbe073617	-0.13204227
96	0x3c8a4588	0.016878858
97	0xbd32dff9	-0.04367063
98	0xbcdb83c7	-0.026796235
99	0x3d50e487	0.05099919
100	0xbd6daf11	-0.058028284
101	0xbd76c77f	-0.060248848
102	0x3cf1375f	0.029445348
103	0x3cb92a5e	0.02260321
104	0x3d9ada17	0.075611286
105	0x3b9cdf2e	0.0047873473
106	0xbd2c9e73	-0.042143296
107	0x3ce8416e	0.028351512
108	0x3d8f3d03	0.06994059
109	0x3d099bfd	0.033596028
110	0x3d52b176	0.05143877
111	0x3d1dfb95	0.038570005
112	0x3d1db411	0.038501803
113	0x3c241db0	0.010016844
114	0x3cb0f259	0.021599935
115	0x3dd47b59	0.10375089
116	0x3da1e2b5	0.07904569
117	0x3d389d90	0.04507214
118	0xba980db2	-0.0011600761
119	0xbc707711	-0.014676825
120	0x3ca7b07a	0.020469893
121	0xbbbbc609	-0.0057303947
122	0x3c92d16b	0.017922124
123	0xbd63bd6e	-0.055600576
124	0xbd8bd04a	-0.06826837
125	0xbd8a5df8	-0.06756204
126	0xbca5c924	-0.020237513
127	0xbd8d9806	-0.06913762
128	0x3d72074c	0.05908899
129	0x3cb1ee75	0.02172015
130	0x3cdf71d1	0.027275952
131	0x3ce515be	0.027964469
132	0x3d9cfe5c	0.07665703
133	0xbd216939	-0.03940699
134	0xbceb0355	-0.028688112
135	0x3cd011f5	0.025399188
136	0xbb56f284	-0.003279836
137	0x3d0a6ecf	0.03379708
138	0xbba2a3af	-0.0049633603
139	0xbc08a800	-0.008340836
140	0xbd74007a	-0.059570767
141	0xbd283800	-0.04106903
142	0x3cd430fc	0.025902264
143	0x3d7eee4e	0.062238984
144	0x3d29ea7a	0.04148338
145	0x3bf63a4f	0.007514275
146	0x3d71172b	0.058859985
147	0xbcd62a09	-0.02614309
148	0xbca5359e	-0.020167168
149	0xbd5c3f72	-0.053771444
150	0x3c66a7c0	0.014078081
151	0xbcc60703	-0.024173265
152	0xbc070f58	-0.008243404
153	0xbd1dc5f9	-0.03851888
154	0xbc95f265	-0.01830406
155	0x3ab417c2	0.001373999
156	0x3c6c31b4	0.014416147
157	0x3d5b62f7	0.053561177
158	0xbd2440a9	-0.040100727
159	0xbc2f5d50	-0.0107034
160	0xbcb3257d	-0.021868462
161	0x3ba3fffb	0.0050048805
162	0x3d07378c	0.033011958
163	0xbd633828	-0.055473477
164	0xbd7b847f	-0.061405655
165	0x3c6832c1	0.014172257
166	0xbd0b2120	-0.033967137
167	0x3c9420ac	0.018081985
168	0x3e140c44	0.14457804
169	0x3d81be4b	0.06335124
170	0x3bbcc64b	0.005760943
171	0xbcc46648	-0.023974553
172	0x3d9c6473	0.07636347
173	0xbd511bae	-0.051051788
174	0xbc8b9e82	-0.017043356
175	0xbd5ae25f	-0.05343854
176	0x3cf74de5	0.03018851
177	0x3d10ffc2	0.03540016
178	0x3d4fb429	0.050708923
179	0x3b935733	0.004496479
180	0x3d99421f	0.07483315
181	0x3c8569c2	0.01628578
182	0x3da31272	0.079625025
183	0xbabc06a9	-0.0014345247
184	0xbc11d10a	-0.008899936
185	0xbb5fb2cc	-0.003413367
186	0xbd612787	-0.054969337
187	0xbd912104	-0.07086375
188	0xbce552d8	-0.027993605
189	0xbc6985e0	-0.01425311
190	0xbd4bb16e	-0.049729757
191	0xbd939634	-0.07206383
192	0x3cd1f07d	0.025627369
193	0x3b80e78d	0.003933853
194	0x3c1392bc	0.009007152
195	0x398f8e01	0.00027380887
196	0x3d18a790	0.037269175
197	0xbc822f0c	-0.015891574
198	0x3c5ffadf	0.013670652
199	0xbd25039c	-0.040286645
200	0x3cd521b5	0.02601705
201	0x3d314a1f	0.043283578
202	0x3d21aedc	0.0394734
203	0xbb556fdd	-0.0032567896
204	0xbdb42d21	-0.0879767
205	0xbd398226	-0.045290135
206	0xbc21290c	-0.0098364465
207	0x3d1ad73f	0.03780293
208	0x3d4031d6	0.046922527
209	0xbb823b83	-0.0039743795
210	0x3cca3bce	0.02468672
211	0x3c88755e	0.016657528
212	0xbd373fd8	-0.04473862
213	0x3b29c76e	0.0025906223
214	0xbd507b5d	-0.0508989
215	0xbd8577da	-0.065170005
216	0xbca5bf69	-0.020232873
217	0x3c302525	0.010751043
218	0x3c24835f	0.010041087
219	0x3d4fb1c1	0.05070663
220	0x3da9d6d8	0.08292931
221	0x3c8eb479	0.01742004
222	0xbc029725	-0.007970606
223	0xbd22784a	-0.039665498
224	0x3d2e8d10	0.042614996
225	0x3c379113	0.011204022
226	0x3d1ccaa6	0.038279198
227	0xbc1e9a6b	-0.009680371
228	0xbdaf8766	-0.08570747
229	0x3b4bd1b0	0.0031100325
230	0x3d17d1b4	0.037065223
231	0xbbaeb2af	-0.0053313593
232	0xbd78c83d	-0.060737837
233	0xbc4c23d0	-0.01245971
234	0xbbf06fd6	-0.0073375506
235	0x3bebda36	0.0071976436
236	0x3deff600	0.11716843
237	0x3cb4d651	0.02207485
238	0xbd667ae6	-0.05626955
239	0xbd239222	-0.039934285
240	0x3ca304fa	0.019899834
241	0x3d8d73da	0.069068626
242	0xbc271534	-0.010197926
243	0x3df0c3ae	0.11756073
244	0xbdaf4fb4	-0.08560124
245	0xbca7ed37	-0.020498855
246	0x3c30409f	0.010757594
247	0xbd1fb3eb	-0.038989943
248	0xbd1c01ca	-0.038087644
249	0xbc9186f3	-0.017764544
250	0x38bf0240	9.108009e-05
251	0xbd7f1486	-0.062275432
252	0x3c904ddc	0.017615251
253	0x3d38f73d	0.04515766
254	0xbd495a08	-0.049158126
255	0xbd4077eb	-0.046989363

fc1.bias f4 [50]
0	0x3d524dfe	0.05134391
1	0x3d63c036	0.05560323
2	0x3b19eea9	0.00234882
3	0xbc34ec18	-0.011042617
4	0x3cb8d246	0.022561204
5	0xba9fb643	-0.0012185056
6	0x3d447518	0.04796323
7	0x3d0ba286	0.03409054
8	0x3c797815	0.015226384
9	0xbb7fa50c	-0.0039008288
10	0x3d2e445e	0.04254567
11	0xbcd864f5	-0.026415328
12	0x3d9b04d5	0.07569281
13	0x3d17284a	0.036903657
14	0x3d95391f	0.072862856
15	0xbcd90e15	-0.026495973
16	0x3c36dde4	0.011161301
17	0x3d88c02e	0.0667728
18	0x3d121ab9	0.035670016
19	0x3de1ffa6	0.11035089
20	0x3dc33217	0.09531038
21	0x3caee595	0.021349708
22	0x3d0819fd	0.03322791
23	0x3ccedbcd	0.025251294
24	0xbcdbc76e	-0.026828494
25	0x3c8fbb8a	0.01754548
26	0xbc75790d	-0.014982474
27	0x3da64fed	0.081207134
28	0x3cac89e1	0.02106184
29	0xbd243c4e	-0.040096574
30	0xbc9b16f3	-0.018931841
31	0x3d35a5e2	0.04434765
32	0xbc0cc02f	-0.008590742
33	0xbc1401ac	-0.009033602
34	0x3d8c66d4	0.068555504
35	0x3d3b7221	0.04576314
36	0xbc0fcfc3	-0.008777562
37	0x3dae8874	0.0852212
38	0x3d82a02f	0.06378209
39	0xbd886dc5	-0.06661562
40	0x3d2723fd	0.040805805
41	0x3b4c8c0d	0.0031211406
42	0xbd94877c	-0.07252404
43	0x3c6e799a	0.014555359
44	0x3d95ed02	0.07320596
45	0x3ccab905	0.024746427
46	0x3d92db7c	0.071707696
47	0x3c4bd6bd	0.012441334
48	0xbb652c36	-0.0034968979
49	0x3a272921	0.0006376673

fc2.weight f4 [10, 50]
0	0xbe9b61bd	-0.30348006
1	0xbe571817	-0.21005283
2	0xbe169a33	-0.1470726
3	0xbe477807	-0.1947938
4	0x3e2891c0	0.16461849
5	0x3dc903e8	0.09815198
6	0xbd9ad7e0	-0.07560706
7	0xbe3e4137	-0.18579565
8	0x3dcb9ccd	0.09942017
9	0x3d475d1c	0.04867278
10	0x3df69428	0.12039977
11	0xbddcd30a	-0.1078244
12	0x3eb105ac	0.3457464
13	0x3ea1dbd9	0.31613043
14	0x3e5875cb	0.21138684
15	0xbdf1d8e9	-0.118089505
16	0x3e15d190	0.14630723
17	0xbe80bf7d	-0.25146094
18	0xbe1c4f12	-0.15264538
19	0xbe4e8511	-0.20167948
20	0xbe0224c0	-0.12709332
21	0xbe758054	-0.23974735
22	0xbe09af53	-0.13445787
23	0xbe85b3f8	-0.26113868
24	0x3e639d3f	0.22227953
25	0x3d1e8ff8	0.038711518
26	0xbd42e434	-0.047580913
27	0xbe07c8d1	-0.13260199
28	0x3e4b1abc	0.19834417
29	0x3ddd06f0	0.10792339
30	0xbe2528d6	-0.16128859
31	0x3e42217b	0.18958084
32	0xbbdd97f4	-0.006762499
33	0x3ca1fb7c	0.019773237
34	0xbcf9083a	-0.03039943
35	0xbe0d03fa	-0.13771048
36	0xbdfae79b	-0.122512065
37	0xbe1e5cdd	-0.15465112
38	0xbd88b30f	-0.06674778
39	0xbdadd7c2	-0.08488418
40	0x3dd0c66f	0.10194098
41	0x3eb5d2e2	0.35512453
42	0xbdb3fd0b	-0.087884985
43	0xbdb40add	-0.087911345
44	0xbd865f0e	-0.06561099
45	0x3dc34197	0.09533995
46	0x3e598b5b	0.21244566
47	0x3e646c61	0.22306968
48	0xbe4df803	-0.2011414
49	0x3e0fe7ec	0.14053315
50	0x3daf838e	0.08570014
51	0x3e13113a	0.1436204
52	0xbe74206c	-0.23840493
53	0x3e689427	0.22712766
54	0x3ccdfc4b	0.025144717
55	0xbe4af3bb	-0.19819538
56	0xbe0817ab	-0.13290279
57	0x3da83327	0.082128815
58	0xbd399055	-0.04530366
59	0x3d9ab94b	0.07554873
60	0x3e7e3d38	0.2482804
61	0xbe7415b7	-0.23836409
62	0x3df0cb5a	0.11757536
63	0xbdcfe33e	-0.10150765
64	0xbe89ab81	-0.2688866
65	0x3d4d016a	0.050050177
66	0xbe11f432	-0.1425331
67	0x3e1cbf43	0.15307336
68	0x3e206609	0.15663923
69	0x3e867b63	0.26266012
70	0x3e3913b6	0.18073925
71	0xbe80d40f	-0.25161788
72	0xbea8cf2b	-0.32970557
73	0x3e4f4397	0.20240627
74	0xbda0c64f	-0.07850324
75	0x3ebe6b56	0.37191266
76	0x3e81e23d	0.2536792
77	0x3e4e0fb3	0.20123176
78	0xbe4a2d89	-0.19743933
79	0xbe3328be	-0.1749601
80	0x3e02b555	0.12764485
81	0xbe0154d3	-0.12630014
82	0xbe29bdcd	-0.1657631
83	0xbe48d54e	-0.1961262
84	0xbdd229af	-0.10261857
85	0x3e376311	0.17908885
86	0x3cba2332	0.02272186
87	0x3e29867d	0.1655521
88	0x3e448eee	0.19195148
89	0xbe820ffa	-0.25402814
90	0x3e739a58	0.23789346
91	0xbdf705ab	-0.12061628
92	0xbe10013b	-0.1406297
93	0x3e9319b6	0.28730553
94	0xbe3fd03a	-0.18731776
95	0x3d55dc77	0.052212205
96	0xba40f810	-0.0007361183
97	0xbdc729bf	-0.09724759
98	0xbdc06472	-0.093941584
99	0xbe33cbd9	-0.1755823
100	0xbe307d8b	-0.17235391
101	0x3e25345a	0.16133252
102	0x3e1f7f15	0.15575822
103	0x3dfe7f25	0.12426595
104	0x3e0bb3a5	0.13642748
105	0x3d9d5542	0.07682277
106	0x3e3320b8	0.1749295
107	0x3e3e7b36	0.18601689
108	0x3e0d7665	0.13814695
109	0x3e4db80c	0.2008974
110	0x3d55cbbf	0.05219626
111	0x3d697b8e	0.057002597
112	0xbdf79985	-0.120898284
113	0xbddf6101	-0.10907174
114	0xbd87ff4c	-0.06640491
115	0xbe55181a	-0.20809975
116	0xbe0ef19f	-0.13959359
117	0x3e2d3c44	0.16917521
118	0xbe12fa16	-0.14353213
119	0xbe5eef90	-0.21771073
120	0xbdb6807b	-0.089112245
121	0xbddb094b	-0.10695132
122	0xbe28cfec	-0.16485566
123	0x3e59b77f	0.21261404
124	0xbdb7aad7	-0.08968132
125	0x3e20bcd5	0.15697034
126	0xbdfe18f8	-0.12407106
127	0xbe1cb1a2	-0.15302137
128	0xbd6cf418	-0.057849973
129	0xbd4b4c24	-0.04963316
130	0x3e33d19b	0.17560427
131	0x3d981fc7	0.07427936
132	0xbdc47f58	-0.095946014
133	0xbe4b0401	-0.19825746
134	0x3e2ede59	0.17077006
135	0xbde44916	-0.111467525
136	0x3e3c8a70	0.18412185
137	0x3e4d71b9	0.20062913
138	0xbe2c6126	-0.16833934
139	0xbda161f2	-0.0788001
140	0x3d7badd4	0.061445072
141	0x3e8c3b19	0.27388838
142	0x3e31fe61	0.17382194
143	0xbcfc1ade	-0.03077453
144	0xbdccf49e	-0.100075945
145	0x3d80e15b	0.06292983
146	0x3df08405	0.11743931
147	0x3e3179a3	0.17331557
148	0x3e132b08	0.14371884
149	0x3c89e8ac	0.01683458
150	0x3e17f48c	0.14839381
151	0xbe21c5f7	-0.15798174
152	0x3e0581ec	0.13037843
153	0x3e51af32	0.20476988
154	0xbdc12ead	-0.09432731
155	0x3d6598a9	0.05605379
156	0xbe07efc1	-0.13275053
157	0x3e6607b3	0.22463875
158	0xbdf02e25	-0.11727551
159	0xbd94b6a2	-0.07261397
160	0xbd5951fc	-0.053056702
161	0xbe055e45	-0.13024242
162	0xbe194866	-0.14969024
163	0xbd5cf85f	-0.053947803
164	0xbdcc6a12	-0.09981169
165	0x3e2b779f	0.1674485
166	0xbd2f8206	-0.04284861
167	0x3e1197d7	0.14218079
168	0x3e1328c7	0.14371024
169	0xbe302241	-0.17200567
170	0xbe65dbbd	-0.22447105
171	0xbe2ca5fd	-0.16860195
172	0x3e06b543	0.13155083
173	0xbc3f1079	-0.011661642
174	0x3dc35d20	0.095392466
175	0xbe4f8596	-0.20265803
176	0xbe145a12	-0.14487484
177	0x3e73a8bb	0.23794834
178	0xbded47f2	-0.11585988
179	0x3e1bb085	0.15204056
180	0x3e3b0471	0.18263413
181	0x3e2770c1	0.16351606
182	0x3e5a304d	0.21307488
183	0xbd9b6f3c	-0.07589576
184	0xbe43b15a	-0.19110623
185	0xbe6e738e	-0.23286268
186	0x3e3fbd9c	0.18724674
187	0x3e32ff97	0.17480312
188	0xbe2d5852	-0.16928223
189	0x3e8e9fa7	0.2785618
190	0xbdbe0a24	-0.09279278
191	0xbd583e04	-0.052793518
192	0xbda3cdf5	-0.079982676
193	0xbdab7295	-0.08371464
194	0x3c6c27c8	0.014413781
195	0x3e101f0a	0.1407434
196	0xbdb32144	-0.08746579
197	0xbda3e7e6	-0.080032155
198	0x3e12b166	0.14325485
199	0x3dee2c09	0.11629493
200	0x3e26feda	0.16308156
201	0x3e0321b8	0.12805831
202	0x3e36eec1	0.17864515
203	0xbe0b6ec4	-0.13616472
204	0xbcaf518b	-0.021401187
205	0xbea793d6	-0.32729977
206	0x3e5fd0a2	0.21856931
207	0x3e4e54ae	0.2014949
208	0x3e1a65fb	0.15077965
209	0xbc8fb3c6	-0.017541777
210	0x3e93b491	0.288487
211	0x3e99e51f	0.30057618
212	0xbd55d2c5	-0.05220296
213	0xbd2bf2f0	-0.04197973
214	0xbe43b661	-0.19112541
215	0xbe225438	-0.1585244
216	0xbe506e75	-0.20354636
217	0xbe1eda02	-0.15512851
218	0x3e6ae283	0.2293797
219	0x3e1224a1	0.14271785
220	0x3e58ca8c	0.21171016
221	0x3e674042	0.22583106
222	0x3d9e2517	0.07721918
223	0xbdaa4eef	-0.08315837
224	0xbdb830c3	-0.089936756
225	0xbc4cd1f5	-0.0125012295
226	0x3c24c014	0.010055561
227	0x3d54eb3f	0.05198216
228	0xbe665b5b	-0.22495787
229	0xbe684f5f	-0.22686528
230	0xbdf4ea0f	-0.11958706
231	0xbe8cbff0	-0.27490187
232	0x3b146c15	0.002264743
233	0x3e981f61	0.2971144
234	0x3e9d3002	0.3070069
235	0x3e4dcb8f	0.20097183
236	0xbe2bebc8	-0.16789162
237	0xbde227f9	-0.110427804
238	0xbda4af57	-0.08041256
239	0x3d2340bb	0.039856654
240	0xbe3f77d3	-0.18698053
241	0x3dd9af9a	0.106291965
242	0xbda783ed	-0.0817946
243	0xbdac68f8	-0.08418459
244	0x3e905894	0.2819258
245	0xbd1ebb66	-0.038752936
246	0x3e194195	0.14966424
247	0x3dd981e2	0.10620476
248	0xbe245fb8	-0.16052139
249	0xbe96426e	-0.29347557
250	0x3e15759a	0.14595643
251	0x3d4bf9d1	0.04979879
252	0xbe0dc70f	-0.13845466
253	0xbe0dae44	-0.13836008
254	0x3e2b789b	0.16745226
255	0xbe8ad756	-0.27117413

fc2.bias f4 [10]
0	0x3e6264c1	0.22108747
1	0x3e788399	0.2426895
2	0xbe1d9d16	-0.15391955
3	0xbe64fcc9	-0.22362055
4	0xbd2b4ccd	-0.04182129
5	0xbe0c767e	-0.13717076
6	0xbd84b92c	-0.06480631
7	0xbd805d61	-0.062678106
8	0x3e85e65b	0.2615231
9	0x3cfd89a0	0.030949414
